…
The MNIST dataset will be used for training the autoencoder. This dataset contains thousands of 28 x 28 pixel images of handwritten digits, as we can see below. As such, our autoencoder will learn the distribution of handwritten digits across (two)dimensional latent space, which we can then use to manipulate samples into a format we like.

[](https://www.machinecurve.com/wp-content/uploads/2019/07/mnist.png)

_Samples from the MNIST dataset_

This is the structure of the encoder:

```shell
Model: ""encoder""
__________________________________________________________________________________________________
Layer (type)                    Output Shape         Param #     Connected to
==================================================================================================
encoder_input (InputLayer)      (None, 28, 28, 1)    0
__________________________________________________________________________________________________
conv2d_1 (Conv2D)               (None, 14, 14, 8)    80          encoder_input[0][0]
__________________________________________________________________________________________________
batch_normalization_1 (BatchNor (None, 14, 14, 8)    32          conv2d_1[0][0]
__________________________________________________________________________________________________
conv2d_2 (Conv2D)               (None, 7, 7, 16)     1168        batch_normalization_1[0][0]
__________________________________________________________________________________________________
batch_normalization_2 (BatchNor (None, 7, 7, 16)     64          conv2d_2[0][0]
__________________________________________________________________________________________________
flatten_1 (Flatten)             (None, 784)          0           batch_normalization_2[0][0]
__________________________________________________________________________________________________
dense_1 (Dense)                 (None, 20)           15700       flatten_1[0][0]
__________________________________________________________________________________________________
batch_normalization_3 (BatchNor (None, 20)           80          dense_1[0][0]
__________________________________________________________________________________________________
latent_mu (Dense)               (None, 2)            42          batch_normalization_3[0][0]
__________________________________________________________________________________________________
latent_sigma (Dense)            (None, 2)            42          batch_normalization_3[0][0]
__________________________________________________________________________________________________
z (Lambda)                      (None, 2)            0           latent_mu[0][0]
                                                                 latent_sigma[0][0]
==================================================================================================
Total params: 17,208
Trainable params: 17,120
Non-trainable params: 88
```

And the decoder:

```shell
__________________________________________________________________________________________________
Model: ""decoder""
_________________________________________________________________
Layer (type)                 Output Shape              Param #
=================================================================
decoder_input (InputLayer)   (None, 2)                 0
_________________________________________________________________
dense_2 (Dense)              (None, 784)               2352
_________________________________________________________________
batch_normalization_4 (Batch (None, 784)               3136
_________________________________________________________________
reshape_1 (Reshape)          (None, 7, 7, 16)          0
_________________________________________________________________
conv2d_transpose_1 (Conv2DTr (None, 14, 14, 16)        2320
_________________________________________________________________
batch_normalization_5 (Batch (None, 14, 14, 16)        64
_________________________________________________________________
conv2d_transpose_2 (Conv2DTr (None, 28, 28, 8)         1160
_________________________________________________________________
batch_normalization_6 (Batch (None, 28, 28, 8)         32
_________________________________________________________________
decoder_output (Conv2DTransp (None, 28, 28, 1)         73
=================================================================
Total params: 9,137
Trainable params: 7,521
Non-trainable params: 1,616
```

And, finally, the VAE as a whole:

```shell
_________________________________________________________________
Model: ""vae""
_________________________________________________________________
Layer (type)                 Output Shape              Param #
=================================================================
encoder_input (InputLayer)   (None, 28, 28, 1)         0
_________________________________________________________________
encoder (Model)              [(None, 2), (None, 2), (N 17208
_________________________________________________________________
decoder (Model)              (None, 28, 28, 1)         9137
=================================================================
Total params: 26,345
Trainable params: 24,641
Non-trainable params: 1,704
```

From the final summary, we can see that indeed, the VAE takes in samples of shape \[latex\](28, 28, 1)\[/latex\] and returns samples in the same format. Great! ðŸ˜Š

Let's now start working on our model. Open up your Explorer / Finder, navigate to some folder, and create a new Python file, e.g. `variational_autoencoder.py`. Now, open this file in your code editor, and let's start coding! ðŸ˜Ž
…
model.add(Conv2D(128, kernel_size=(3, 3), activation='relu', padding='valid'))
model.add(Flatten())
model.add(Dense(256, activation='relu'))
model.add(Dense(no_classes, activation='softmax'))
```

### Model summary and the effects of Valid Padding

Now, it's time to add `model.summary()` and run the Python code in your terminal. You should see a summary appear:

```
Model: ""sequential_1""
_________________________________________________________________
Layer (type)                 Output Shape              Param #
=================================================================
conv2d_1 (Conv2D)            (None, 26, 26, 32)        320
_________________________________________________________________
conv2d_2 (Conv2D)            (None, 24, 24, 64)        18496
_________________________________________________________________
conv2d_3 (Conv2D)            (None, 22, 22, 128)       73856
_________________________________________________________________
flatten_1 (Flatten)          (None, 61952)             0
_________________________________________________________________
dense_1 (Dense)              (None, 256)               15859968
_________________________________________________________________
dense_2 (Dense)              (None, 10)                2570
=================================================================
Total params: 15,955,210
Trainable params: 15,955,210
Non-trainable params: 0
_________________________________________________________________
```

Analyzing the summary, the effect of valid padding is clear - and it is also clear why it equals ""no padding"". That is, unsurprisingly, no padding is applied when using valid padding.
…
model.add(Conv2D(64, kernel_size=(3, 3), activation='relu', padding='same'))
model.add(Conv2D(128, kernel_size=(3, 3), activation='relu', padding='same'))
model.add(Flatten())
model.add(Dense(256, activation='relu'))
model.add(Dense(no_classes, activation='softmax'))
```

### Model summary and the effects of Valid Padding

What if we run `model.summary()` here?

This would be the output:

```
Model: ""sequential_1""
_________________________________________________________________
Layer (type)                 Output Shape              Param #
=================================================================
conv2d_1 (Conv2D)            (None, 28, 28, 32)        320
_________________________________________________________________
conv2d_2 (Conv2D)            (None, 28, 28, 64)        18496
_________________________________________________________________
conv2d_3 (Conv2D)            (None, 28, 28, 128)       73856
_________________________________________________________________
flatten_1 (Flatten)          (None, 100352)            0
_________________________________________________________________
dense_1 (Dense)              (None, 256)               25690368
_________________________________________________________________
dense_2 (Dense)              (None, 10)                2570
=================================================================
Total params: 25,785,610
Trainable params: 25,785,610
Non-trainable params: 0
_________________________________________________________________
```

Indeed, as we can now observe, the _shape_ of our feature maps has stayed the same - 28x28 pixels! :)

* * *

## How to use Causal Padding with Keras?

Applying causal padding is simple: just apply `causal` to your `Conv1D` model to pad zeroes to the front of your inputs.
…
Now, the model. It looks as follows:



...and has these layers:

- The input layer, which takes the input data;
- Two Conv1D layers, which serve as _encoder_;
- Two Conv1D transpose layers, which serve as _decoder_;
- One Conv1D layer with one output, a Sigmoid activation function and padding, serving as the output layer.

To provide more details, this is the model summary:

```shell
Model: ""sequential""
_________________________________________________________________
Layer (type)                 Output Shape              Param #
=================================================================
conv1d (Conv1D)              (None, 148, 128)          512
_________________________________________________________________
conv1d_1 (Conv1D)            (None, 146, 32)           12320
_________________________________________________________________
conv1d_transpose (Conv1DTran (None, 148, 32)           3104
_________________________________________________________________
conv1d_transpose_1 (Conv1DTr (None, 150, 128)          12416
_________________________________________________________________
conv1d_2 (Conv1D)            (None, 150, 1)            385
=================================================================
Total params: 28,737
Trainable params: 28,737
Non-trainable params: 0
```

Let's now start with the first part - generating the pure waveforms! Open up your Explorer, navigate to some folder (e.g. `keras-autoencoders`) and create a file called `signal_generator.py`. Next, open this file in your code editor - and let the coding process begin!
…
Next, we configure the model. Image width and image height are 28 x 28 pixels, the batch size is 25 (which is on the low end of the spectrum, but ...",reducing-trainable-parameters-with-a-dense-free-convnet-classifier.md,0,.md,deep-learning frameworks,Reducing trainable parameters with a Dense-free ConvNet classifier,4784,main page,convolutional-neural-networks dense global-average-pooling max-pooling neural-networks,2,6618
"And this is the one for the traditional one, the classic CNN:

```
Model: ""Traditional""
_________________________________________________________________
Layer (type)                 Output Shape              Param #
=================================================================
conv2d_3 (Conv2D)            (None, 26, 26, 32)        320
_________________________________________________________________
max_pooling2d_2 (MaxPooling2 (None, 13, 13, 32)        0
_________________________________________________________________
dropout_2 (Dropout)          (None, 13, 13, 32)        0
_________________________________________________________________
conv2d_4 (Conv2D)            (None, 11, 11, 64)        18496
_________________________________________________________________
max_pooling2d_3 (MaxPooling2 (None, 5, 5, 64)          0
_________________________________________________________________
dropout_3 (Dropout)          (None, 5, 5, 64)          0
_________________________________________________________________
flatten (Flatten)            (None, 1600)              0
_________________________________________________________________
dense (Dense)                (None, 256)               409856
_________________________________________________________________
dense_1 (Dense)              (None, 10)                2570
=================================================================
Total params: 431,242
Trainable params: 431,242
Non-trainable params: 0
_________________________________________________________________
```

As you can see, the number of trainable parameters for the Global Average Pooling based model is substantially lower than for the classic one. The second overview, and especially the `dense` layer in this overview, illustrates the difference: large Dense layers add quite a set of trainable parameters due to their high connectedness. The question, however, is this:
…
Now, save this model - e.g. as `h5model.py` - and open a terminal. `cd` to the folder where your file is located and execute it with `python h5model.py`.

Make sure that TensorFlow 2.x is installed, as well as `h5py`:

- Installing TensorFlow 2.x onto your system;
- Installing H5py onto your system.

Then, you should see the training process begin - as we are used to:

```
Model: ""sequential""
_________________________________________________________________
Layer (type)                 Output Shape              Param #
=================================================================
conv2d (Conv2D)              (None, 26, 26, 32)        320
_________________________________________________________________
conv2d_1 (Conv2D)            (None, 24, 24, 64)        18496
_________________________________________________________________
conv2d_2 (Conv2D)            (None, 22, 22, 128)       73856
_________________________________________________________________
flatten (Flatten)            (None, 61952)             0
_________________________________________________________________
dense (Dense)                (None, 128)               7929984
_________________________________________________________________
dense_1 (Dense)              (None, 10)...",how-to-use-h5py-and-keras-to-train-with-data-from-hdf5-files.md,0,.md,deep-learning frameworks,How to use H5Py and Keras to train with data from HDF5 files?,2708,main page,dataset deep-learning h5py hdf5 keras machine-learning mnist,1,3261
"I recently finished work on my master's thesis in which I investigated how the process of mapping underground utilities such as cables and pipelines could be improved with deep neural networks.
…
Finally, once training has finished, you wish to evaluate the model against data that it hasn't yet seen - to find out whether it _really_ performs and did not simply overfit to your training set. We use `model.evaluate` for this purpose.

* * *

## Model summaries

...what is lacking, though, is some quick and dirty information about your model. Can't we generate some kind of summary?

Unsurprisingly, we can! ðŸ˜€ It would look like this:

```
Model: ""sequential""
_________________________________________________________________
Layer (type)                 Output Shape              Param #
=================================================================
conv2d (Conv2D)              (None, 30, 30, 32)        896
_________________________________________________________________
conv2d_1 (Conv2D)            (None, 28, 28, 64)        18496
_________________________________________________________________
conv2d_2 (Conv2D)            (None, 26, 26, 128)       73856
_________________________________________________________________
flatten (Flatten)            (None, 86528)             0
_________________________________________________________________
dense (Dense)                (None, 128)               11075712
_________________________________________________________________
dense_1 (Dense)              (None, 10)                1290
=================================================================
Total params: 11,170,250
Trainable params: 11,170,250
Non-trainable params: 0
_________________________________________________________________
```

There are multiple benefits that can be achieved from generating a model summary:

- Firstly, you have that quick and dirty overview of the components of your Keras model. The names of your layers, their types, as well as the shape of the data that they output and the number of trainable parameters.
…
